hw1/model.npy (npy, 664 bytes, 1 tensors)

array f8 [73]
-0.003019002859662666 -0.07116296655086293 -0.07433047061538717 0.1290690935101811 -0.08475188769775598 0.01348597856843197 0.03904710686456602 -0.0004916604297325006
-0.15106563973803114 0.177706354771326 0.0007918843983806532 0.023833461695554874 -0.03288004340148347 0.022290632165142595 -0.011053560046715347 -0.010923285705408957
0.002919318790962774 -0.02074716099752267 0.04535156721483269 0.008463266702341075 0.012535861543261612 -0.04583499865845301 0.06646064814325664 -0.010554358556525478
-0.0581337026135891 0.055499922636532056 -0.012164955713040361 0.08662039875693957 -0.03245683173025758 -0.022542050418134372 0.22551585299222998 -0.24977449927516324
-0.03213176386635118 0.5077558286678305 -0.5549443352126586 0.0038188480073598186 0.9894157728343818 -0.002514496869533841 -0.013503782775435439 0.02271801304528934
-0.00948844829298258 -0.0009802150061839748 0.008819199330747401 0.0024037346544027493 -0.038092483015963664 0.02120542408485977 -0.0024821787704259234 0.0005008568617596461
0.006904281261745628 -0.0070049782947749625 0.007475576237102357 -0.008547760588857553 0.0032369676740464696 0.0004724631900350396 0.0005752311882156979 -0.0002833899410654536
-0.00014447139838061438 0.010587328250302007 -0.007083561135539472 -0.018495223258833803 0.01800518926014202 -0.0027854107587529766 -0.026279903218639784 0.025432434680030102
-0.008645282843050101 0.006272257510274951 -0.003254228389436313 0.003524764127231255 0.006116615995009711 0.0005552331693542992 -0.0171296998291143 0.008806843481179527
0.004960603404574829
00000000: 7d9e 8fd1 4ebb 68bf 56b5 0576 bc37 b2bf
00000010: 34ae 635c 5207 b3bf da79 c607 5685 c03f
00000020: ffa5 efb9 4cb2 b5bf 5c6e 3f67 899e 8b3f
00000030: 6f34 f97d fbfd a33f dc40 b4bb 581c 40bf
00000040: 55b1 1c6f 1e56 c3bf 4861 04f3 14bf c63f
00000050: f4dc efcb cef2 493f 7baa 218a cc67 983f
00000060: d66b 332e a7d5 a0bf 3f35 a000 5bd3 963f
00000070: 5278 3db7 3fa3 86bf 9fee f496 f25e 86bf
00000080: 4627 7b57 41ea 673f b277 e067 be3e 95bf
00000090: 9025 0514 5238 a73f 328c a16d 3055 813f
000000a0: 900c d8da 66ac 893f 0522 8058 af77 a7bf
000000b0: 440a 3fa6 9003 b13f 60ef a406 869d 85bf
000000c0: 63a0 0a5f b3c3 adbf 2412 4f61 7c6a ac3f
000000d0: 94f1 8eb7 f0e9 88bf 4dd9 d323 c12c b63f
000000e0: de5f a08d 2e9e a0bf 399b 5265 4315 97bf
000000f0: d463 aa16 b4dd cc3f 2b7c e15c 9cf8 cfbf
00000100: fe02 f015 9373 a0bf 2e6a cf26 893f e03f
00000110: b2d7 5a9f 1ac2 e1bf 7ba4 9969 b448 6f3f
00000120: 2a0c 4f44 4ba9 ef3f c5e1 413a 4899 64bf
00000130: 956b 240b dfa7 8bbf c90c 3d0c 6443 973f
00000140: 487c ddf8 ad6e 83bf 7844 41d9 510f 50bf
00000150: 10a6 9ee5 cc0f 823f 8a53 5337 ffb0 633f
00000160: ddd2 8da1 db80 a3bf f3e5 c4eb dfb6 953f
00000170: 4aaa 8994 8155 64bf 9695 adeb 7d69 403f
00000180: b59a 8be3 a947 7c3f efc6 f68a 40b1 7cbf
00000190: e951 50b7 b59e 7e3f 8b27 7701 7d81 81bf
000001a0: 0b2c 8bc9 6984 6a3f 48c1 23f3 9df6 3e3f
000001b0: d620 0d92 63d9 423f c76e 6587 7e92 32bf
000001c0: 2414 cddc a7ef 22bf 9f4e b224 cfae 853f
000001d0: b267 a9f6 a603 7dbf 839a 1d6c 69f0 92bf
000001e0: b755 1fcc f36f 923f 5a33 ac03 6ed1 66bf
000001f0: b5e3 7673 1ee9 9abf 0363 d5cc f50a 9a3f
00000200: 7dc4 9a38 9eb4 81bf 103e 0f4e f0b0 793f
00000210: bdf7 3390 9ca8 6abf 25df e154 f7df 6c3f
00000220: 2676 929a bc0d 793f 177e ea26 a231 423f
00000230: e7b1 39b2 728a 91bf 337b dc85 5209 823f
00000240: 04d8 41d6 9151 743f
