hw2/model.npy (npy, 928 bytes, 1 tensors)

array f8 [106]
00000000: 8620 5376 bfae d63f 370c b91b 3c49 b03f
00000010: 506c f1d2 2ac9 d93f 0155 701b ade5 0240
00000020: 868b 604d 2955 d13f b32f 1606 472c d83f
00000030: 4eaa cc17 544c b73f 4724 fc2e edd0 9fbf
00000040: 53bc ee6d 9556 f3bf 8866 5fe8 dc6e 753f
00000050: 05ab 1c23 8a35 a93f 603d 5d6f c7cb bcbf
00000060: c536 ac16 c48b acbf 8433 9457 1f15 f7bf
00000070: 26b4 a3bc b4de c9bf 2a0f 916f 954d d1bf
00000080: d859 b104 cc3f d2bf 0049 e211 3816 c1bf
00000090: e9aa f27f f192 c4bf 13e3 bfe9 27a0 c8bf
000000a0: 27f9 a968 ace1 d2bf de0e 317e a47c cdbf
000000b0: 6f29 6158 ee73 a0bf 181f c086 a7cd 9cbf
000000c0: 93a6 6a61 b205 c33f ec8e 6fa3 8ed1 c33f
000000d0: b1d9 d350 a0ef d5bf 5f53 f48e 945a c53f
000000e0: d576 e59b 5b7b f1bf 0446 a917 57b8 c43f
000000f0: 7ebd 3a57 ac34 c5bf 1c21 ede4 44ef cebf
00000100: 4240 2388 f4ad ae3f 4109 3e20 2be8 d43f
00000110: 87c7 c6a2 8df3 b6bf c9fa fe8c 71ce e1bf
00000120: f8ea bd40 93a7 c3bf f10a f114 cf06 bbbf
00000130: 39e0 b5e3 a60e d6bf 9e3f ca14 7d18 acbf
00000140: 0c3e 5b23 9e51 d4bf 54c1 f9b1 a1f1 b2bf
00000150: be48 7fe6 3908 d6bf d460 2d2d 1af9 d6bf
00000160: 6f04 379b a623 d5bf 6d3f f416 286b e2bf
00000170: 6e10 c3c1 204d dabf ba56 c1b1 9b97 c6bf
00000180: 3074 1cb7 d37d abbf e5aa c18f f732 cebf
00000190: fd20 f4ff 02c1 b1bf 7201 a8ea e275 cfbf
000001a0: 23f3 a178 e352 cbbf e0cb 4000 ed28 b63f
000001b0: 90cb 545c 5f46 b6bf 2c25 ab95 ab78 c1bf
000001c0: 11b7 fc68 a5e0 dfbf 00d3 7ff5 6c76 bbbf
000001d0: 1754 7a7f 610c d43f 8583 6f8e cc17 b2bf
000001e0: 5037 5d68 3831 65bf a456 783b 19a6 b2bf
000001f0: d6c2 69bc 2f65 a9bf 90e7 8808 84e7 563f
00000200: 9c69 ed4b ebfd 833f 3426 0d28 a84c a73f
00000210: 09a2 668f 4531 9dbf d21a 280d 531b b4bf
00000220: 8eb7 d177 1f89 a13f adbc 670b 094a b3bf
00000230: 14a7 51d9 f103 87bf 6f2a 91dc 5705 88bf
00000240: ba5e 100d 1e0a a63f 0663 33d6 f7b0 a33f
00000250: fcb1 142f 7b2a aa3f 306b 92ef cc92 863f
00000260: f037 1fe0 16b6 673f ac39 9b87 010d 743f
00000270: f19d 9beb 6324 02c0 48e5 ecb6 691a 9dbf
00000280: 6069 33da 4fa0 9cbf 9625 0bf1 5b19 b0bf
00000290: c096 5586 21ec 75bf 2b9d c79a 8ef4 953f
000002a0: 5412 4878 c3ae ac3f 9287 cbff 13ef a83f
000002b0: b36d 5a59 56f0 913f 7a4a 728f 7be2 993f
000002c0: 975e ba01 a3f3 a3bf f85b 4e2a 5944 7ebf
000002d0: 2b70 3e50 e84f 94bf 8caf b551 ab31 f8bf
000002e0: f248 3504 3b57 93bf d8d1 f195 bccc ae3f
000002f0: f81f 1306 5f12 7a3f f050 f128 308a 5a3f
00000300: b879 3b8f 537f 613f 2079 98f4 7759 9d3f
00000310: ce10 f38f ac8b a8bf 0033 ab0a 52c5 793f
00000320: 3cc5 733d 2cf5 a4bf 2084 f216 78d1 9ebf
00000330: 94a3 2225 1813 ce3f 0791 c471 3402 a5bf
00000340: a8ec 41ab 41c9 ad3f 768c 06c5 18c4 a23f
0.35441576533458663 0.06361747433497632 0.40290327644260504 2.3621465819984455 0.2708228355060601 0.37770248026276504 0.0910084303001579 -0.03107042884133573
-1.2086386007538479 0.005232680245137573 0.04923659971821873 -0.1124844214330003 -0.05575382973448265 -1.4426568432856763 -0.20210894785796646 -0.27036033530406434
-0.285143856604376 -0.13349057076681703 -0.16073435542542505 -0.19238757051041286 -0.2950240156277623 -0.23036628877354465 -0.032134483612554436 -0.028128259276882422
0.14861135250730637 0.1548326776529544 -0.34275062459291933 0.16682679157443212 -1.0926166619969326 0.16187561660130723 -0.16566995867968254 -0.2416769140056737
0.05992092286908292 0.32667043827690995 -0.08965382789645392 -0.5564506295994188 -0.1535514894602199 -0.10557264577168347 -0.34464428174351586 -0.05487433317932687
-0.31748155071997597 -0.07399950595004628 -0.344252085776258 -0.35895399486390756 -0.33030095250803176 -0.5755806396791577 -0.4109575168806775 -0.1765017145104844
-0.053694358923373264 -0.23593039054261236 -0.06935137509220009 -0.2457851072104052 -0.2134670580889174 0.08656197792224374 -0.08701129917316863 -0.1364950638583563
-0.4980863118424717 -0.10727578157077389 0.31325566720016823 -0.07067564465934424 -0.002586946650729262 -0.07284696294694953 -0.049600116490983545 0.0013979710949016712
0.009761656050319804 0.045506720437128584 -0.028508269193169542 -0.0785419375534773 0.03424928987156682 -0.07534843948791332 -0.011237992710636337 -0.011728941363022131
0.04304593953582754 0.03845953454737665 0.05110535573689742 0.011022187291293756 0.0028944441591880407 0.004895215964735671 -2.2677687079301383 -0.02842106989848972
-0.027955291455194042 -0.06288694987156015 -0.005352145153073529 0.02144072360706876 0.056020840103916086 0.048699021315555716 0.017518376544655555 0.02527802527454035
-0.0389681758508093 -0.0073894007699868355 -0.019836072824191014 -1.512126273325495 -0.01888744557556605 0.06015576677683371 0.006365176378672281 0.0016198606788480584
0.0021359092732915162 0.028661608032160335 -0.04794062859721891 0.006291695094387206 -0.040933020116322244 -0.030095936203569207 0.23495771229979978 -0.04103244675414613
0.058176090388735446 0.0366523495206587
